S25/pytorch_models/TD3_carEndGameEnv_0_actor.pth (torch_old, 579086 bytes, 27 tensors)

convblock1.0.weight f4 [8, 1, 3, 3]
-0.036878675 0.130444 -0.2959466 -0.2297304 -0.12665193 0.13051811 -0.0012148217 0.26319507
-0.020805959 -0.027428837 -0.21875297 -0.02918545 -0.2501188 -0.22776604 -0.11211426 0.093041375
0.15765734 0.20629987 -0.20647825 -0.14396566 0.19259396 0.29085863 -0.09137441 0.22962871
-0.03404709 -0.0021308998 0.27693555 -0.22871463 -0.18973108 -0.08677 0.09858487 0.32779694
-0.21219636 -0.07849516 -0.24332109 -0.22721764 -0.16958432 0.34556606 0.19187668 0.16554688
0.037718624 -0.13912418 0.032406714 -0.2792114 -0.19988935 -0.18650906 0.26855558 0.29290468
-0.22943394 -0.043887552 0.17972188 0.20855932 0.07754306 -0.08321352 0.16818237 -0.21083486
0.12043712 -0.2824004 -0.16561876 -0.23764992 0.17952935 0.18012527 -0.13592486 0.2469096
0.18164311 -0.11808116 -0.0015992534 0.017007036 0.12701334 0.27181774 -0.28767315 -0.16370639
00000000: 180e 17bd 1d93 053e 5086 97be 723e 6bbe
00000010: 0bb1 01be 8aa6 053e a73a 9fba 81c1 863e
00000020: 4271 aabc 71b2 e0bc c700 60be 5316 efbc
00000030: 920f 80be 803b 69be 299c e5bd 7a8c be3d
00000040: ed70 213e 4640 533e 096f 53be bc6b 13be
00000050: 5a37 453e 6ceb 943e 8222 bbbd ca23 6b3e
00000060: f674 0bbd 91a6 0bbb 7fca 8d3e 2b34 6abe
00000070: dd48 42be 78b4 b1bd dde6 c93d 00d5 a73e
00000080: 014a 59be 12c2 a0bd 2a29 79be beab 68be
00000090: 83a7 2dbe 09ee b03e 527b 443e 1f85 293e
000000a0: d87e 1a3d 9276 0ebe e7bc 043d ccf4 8ebe
000000b0: cbaf 4cbe 3bfc 3ebe 1e80 893e 9af7 953e
000000c0: bbf0 6abe 6fc3 33bd 0309 383e 9390 553e
000000d0: e5ce 9e3d da6b aabd 0038 2c3e 18e5 57be
000000e0: bda7 f63d c996 90be f797 29be 805a 73be
000000f0: 8bd6 373e c272 383e e32f 0bbe dfd5 7c3e
00000100: a700 3a3e 89d4 f1bd 0a9e d1ba 5752 8b3c
00000110: c90f 023e b22b 8b3e e549 93be a6a2 27be

convblock1.2.weight f4 [8]
1.0532159 0.95664865 0.94228154 1.2147071 0.9453524 0.9652925 1.060549 0.9876076
00000000: c7cf 863f ede6 743f 5d39 713f 867b 9b3f
00000010: 9d02 723f 691d 773f 12c0 873f dad3 7c3f

convblock1.2.bias f4 [8]
0.064464025 0.050944958 0.0153360395 -0.008970385 0.1375141 -0.030940253 0.10333211 0.07868356
00000000: b705 843d a9ab 503d 0344 7b3c 86f8 12bc
00000010: 7fd0 0c3e 6a76 fdbc c99f d33d d924 a13d

convblock1.2.running_mean f4 [8]
0.0025116403 0.004367867 0.25060913 4.2806456e-05 0.01314643 0.23858823 0.0024540115 0.14103359
00000000: 559a 243b 5320 8f3b d74f 803e 158b 3338
00000010: 2064 573c 7950 743e 7bd3 203b 1c6b 103e

convblock1.2.running_var f4 [8]
0.0002816612 0.00049025216 0.056498036 2.7250346e-07 0.002446021 0.05194171 0.00016443201 0.019898783
00000000: edab 9339 4484 003a 7c6a 673d 974c 9234
00000010: 6c4d 203b d5c0 543d 626b 2c39 c602 a33c

convblock2.0.weight f4 [12, 8, 3, 3]
0.12712258 0.08675949 0.08583013 0.083921865 0.043745972 -0.10560088 0.05034252 0.021701679
0.024723064 0.1329394 0.05495379 -0.18761256 0.022940265 -0.019919718 -0.018659325 -0.055343047
0.090323076 -0.034357864 0.03376406 0.05902175 0.061489604 0.042559758 -0.120414585 -0.106401764
0.06562027 0.013194365 -0.11383651 0.05753213 0.21632865 0.18301025 -0.07420963 0.012631479
-0.07281991 -0.014746833 -0.054096267 0.013459531 0.021202033 0.0563118 -0.06681823 0.0868901
-0.103782915 0.08929491 0.06851991 -0.09446981 -0.004345834 0.018039675 0.03773987 0.027438274
0.071115434 0.030523935 -0.051468894 0.0639804 -0.100123785 -0.06502338 -0.025522336 -0.103870936
-0.06048235 -0.04221395 0.035979196 0.0747662 -0.05254919 0.016368184 0.052270252 -0.028624175
-0.014861396 -0.040839 -0.01190154 0.03977803 0.091782935 0.028327052 0.0672658 -0.055394236
-0.13113515 -0.09484265 0.036823135 -0.033078805 -0.02782258 -0.0769223 -0.07830328 -0.11860642
-0.035193015 0.067756854 0.06804361 -0.1278361 0.09400723 -0.08418634 0.0025846995 0.005256891
-0.01647052 0.008496903 -0.08673983 -0.116005175 -0.041475203 0.022152191 -0.06447798 0.025798569
-0.096669875 -0.014549929 0.09258667 -0.32662365 0.023348354 -0.04165744 -0.14992838 0.08597013
-0.01141014 -0.04033533 0.11415266 0.030742455 0.03476324 -0.04925058 -0.014675762 0.054077998
0.022442693 -0.018355763 -0.02008595 -0.042435825 -0.13841282 0.08528895 0.09169989 0.060792465
-0.06044699 0.013581479 -0.09326024 -0.051056445 -0.058624998 0.038796186 -0.18088935 0.017083198
-0.024553215 0.065459445 -0.08949705 -0.078030236 -0.115472764 0.07363697 -0.12788609 0.12622601
0.048294008 0.008174669 0.013300049 -0.016238872 0.011433765 -0.027834807 -0.0073196664 0.01589848
-0.10251064 0.009360747 0.09707442 -0.024874317 0.01007093 0.08468329 0.01979497 -0.010653205
-0.13213174 0.007260483 -0.012436853 -0.015894039 -0.04746793 -0.01975186 -0.08074081 0.053626657
-0.0656221 0.06656016 0.05343313 -0.10490148 0.049875025 -0.09652452 -0.06904194 0.03173114
0.03801465 0.08583809 -0.026610572 -0.1693953 -0.1481217 -0.40731344 0.16917846 -0.0497502
-0.029039491 -0.0017315665 -0.048905086 0.11075518 0.040470164 -0.13252322 -0.21933854 -0.093427405
-0.08905604 0.049314592 -0.021474866 -0.029442495 -0.1019615 0.024448205 0.021151127 0.06188589
0.008355015 -0.072390124 -0.05823662 0.013326153 0.060817286 0.0014188241 -0.24871 -0.20335798
-0.2850334 0.011143275 -0.08932779 -0.059943113 0.106009774 -0.072886124 0.0011065257 0.026522608
-0.015429509 -0.090952896 -0.095950864 0.072599374 -0.010748805 0.11910178 -0.04455979 0.017653933
0.03319674 -0.09811909 -0.06520702 0.024361717 -0.033349425 -0.10339748 -0.018181218 -0.07450056
0.0673423 -0.06750187 0.015427454 -0.12301517 -0.11780139 -0.13058645 -0.090393774 -0.0148012955
-0.039509114 -0.07082761 0.007923606 0.06473612 0.06850242 -0.04322652 -0.108767815 -0.010096962
0.0012494001 -0.07695216 0.038392294 0.019779796 -0.06874096 0.004685578 0.15147486 0.106042325
0.06779521 0.07886362 -0.04633988 0.10703178 0.10631971 0.101453975 0.057259247 0.032531288
00000000: 6c2c 023e f6ae b13d b5c7 af3d 3adf ab3d
00000010: fa2e 333d 4645 d8bd f533 4e3d b8c7 b13c
00000020: 0688 ca3c 4421 083e 3a17 613d 821d 40be
00000030: 39ed bb3c ad2e a3bc 71db 98bc 64af 62bd
00000040: 4efb b83d d5ba 0cbd 2f4c 0a3d cac0 713d
00000050: 86dc 7b3d 2453 2e3d ec9b f6bd 2be9 d9bd
00000060: ec63 863d 2e2d 583c 1e23 e9bd d0a6 6b3d
00000070: 4285 5d3e 0a67 3b3e 38fb 97bd 43f4 4e3c
00000080: 9b22 95bd b39c 71bc 0c94 5dbd 5d85 5c3c
00000090: e3af ad3c 34a7 663d ffd7 88bd 70f3 b13d
000000a0: 238c d4bd 40e0 b63d 2b54 8c3d 6379 c1bd
000000b0: 7f67 8ebb f1c7 933c 1f95 1a3d 3bc6 e03c
000000c0: f8a4 913d 550d fa3c 0cd1 52bd 2808 833d
000000d0: b30d cdbd fa2a 85bd 3814 d1bc 49ba d4bd
000000e0: 57bc 77bd 89e8 2cbd ec5e 133d 051f 993d
000000f0: d23d 57bd 9216 863c 5519 563d 3f7d eabc
00000100: 367d 73bc cc46 27bd adfe 42bc 4aee 223d
00000110: b1f8 bb3d 220e e83c a7c2 893d 11e5 62bd
00000120: 4b48 06be dd3c c2bd dbd3 163d a47d 07bd
00000130: 2eec e3bc 7089 9dbd 785d a0bd ece7 f2bd
00000140: 8d26 10bd 1bc4 8a3d 735a 8b3d 77e7 02be
00000150: dd86 c03d e369 acbd 1064 293b ff41 ac3b
00000160: 2fed 86bc 9836 0b3c a7a4 b1bd 1f94 edbd
00000170: e7e1 29bd 8378 b53c 080d 84bd 8557 d33c
00000180: dbfa c5bd d362 6ebc 149e bd3d 373b a7be
00000190: 0c45 bf3c fea0 2abd d386 19be 1c11 b03d
000001a0: 99f1 3abc a936 25bd dfc8 e93d 9ad7 fb3c
000001b0: e663 0e3d faba 49bd 9b72 70bc e480 5d3d
000001c0: bdd9 b73c d35e 96bc 4a8b a4bc 30d1 2dbd
000001d0: 17bc 0dbe f9ab ae3d 27cd bb3d 8501 793d
000001e0: 4397 77bd da84 5e3c 3aff bebd 9020 51bd
000001f0: c420 70bd c0e8 1e3d 0f3b 39be 10f2 8b3c
00000200: d323 c9bc 9a0f 863d 3b4a b7bd 51ce 9fbd
00000210: fc7c ecbd fbce 963d 92f4 02be 6441 013e
00000220: f0cf 453d 0cef 053c 73e8 593c 6207 85bc
00000230: b054 3b3c d205 e4bc d0d9 efbb 873d 823c
00000240: 19f1 d1bd d25d 193c f4ce c63d 39c5 cbbc
00000250: 8b00 253c 6f6e ad3d 1029 a23c c88a 2ebc
00000260: 8b4d 07be 59e9 ed3b f1c3 4bbc 3734 82bc
00000270: bb6d 42bd a7ce a1bc 705b a5bd a0a7 5b3d
00000280: e164 86bd b150 883d b3dc 5a3d 96d6 d6bd
00000290: c149 4c3d a6ae c5bd dc65 8dbd 83f8 013d
000002a0: 40b5 1b3d e1cb af3d 6afe d9bc f675 2dbe
000002b0: 37ad 17be 638b d0be 1e3d 2d3e dec6 4bbd
000002c0: 3ae4 edbc bbf5 e2ba b350 48bd 9dd3 e23d
000002d0: 0bc4 253d 2bb4 07be 489a 60be de56 bfbd
000002e0: 0363 b6bd 19fe 493d 0fec afbc 6331 f1bc
000002f0: 31d1 d0bd 9a47 c83c 2145 ad3c 0f7c 7d3d
00000300: 79e3 083c 4641 94bd 8689 6ebd f055 5a3c
00000310: 8c1b 793d d6f7 b93a d6ad 7ebe 133d 50be
00000320: e6ef 91be 4892 363c 7df1 b6bd e986 75bd
00000330: a71b d93d 5245 95bd d708 913a f145 d93c
00000340: 0dcc 7cbc 8345 babd e381 c4bd fbae 943d
00000350: c11b 30bc a2eb f33d 5484 36bd fb9e 903c
00000360: 4ef9 073d a9f2 c8bd 428b 85bd 3992 c73c
00000370: 6899 08bd 0fc2 d3bd c7f0 94bc c093 98bd
00000380: c3ea 893d 6c3e 8abd 6fc3 7c3c 61ef fbbd
00000390: db41 f1bd 74b8 05be 5f20 b9bd 2281 72bc
000003a0: 4fd4 21bd 110e 91bd 03d2 013c 5f94 843d
000003b0: ff4a 8c3d 4b0e 31bd a9c1 debd ba6d 25bc
000003c0: e9c2 a33a 1899 9dbd 3d41 1d3d 3d09 a23c
000003d0: 0fc8 8cbd 7a89 993b 3a1c 1b3e b82c d93d
000003e0: 37d8 8a3d 4083 a13d e3ce 3dbd 7a33 db3d
000003f0: 26be d93d 1ac7 cf3d ac88 6a3d 873f 053d

convblock2.2.weight f4 [12]
0.9910095 0.9241634 1.0474336 0.9600004 1.0799432 0.9923715 0.9040269 0.97212607
1.0576947 1.0214957 0.9914721 1.0539291
00000000: ccb2 7d3f f995 6c3f 4e12 863f 96c2 753f
00000010: 943b 8a3f 0f0c 7e3f 4f6e 673f 41dd 783f
00000020: 8a62 873f 5fc0 823f 1ed1 7d3f 26e7 863f

convblock2.2.bias f4 [12]
-0.068739064 -0.013658802 0.01885593 0.109558344 -0.05237467 -0.012102862 0.104608424 -0.08579862
-0.070212044 0.08739603 0.03498945 0.037596382
00000000: 11c7 8cbd 2bc9 5fbc c077 9a3c 2060 e03d
00000010: d286 56bd 154b 46bc f13c d63d 30b7 afbd
00000020: 55cb 8fbd b1fc b23d 1951 0f3d aafe 193d

convblock2.2.running_mean f4 [12]
0.13305351 0.1075004 0.13724892 0.23995398 0.21130694 0.24459375 0.10511704 0.16540904
0.11193667 0.32809594 0.09180932 0.477594
00000000: 2e3f 083e 2b29 dc3d fb8a 0c3e 7fb6 753e
00000010: d960 583e c976 7a3e 9a47 d73d fd60 293e
00000020: 0e3f e53d 31fc a73e 8606 bc3d 3387 f43e

convblock2.2.running_var f4 [12]
0.1364509 0.026348658 0.020247996 0.11692894 0.10077518 0.1110806 0.03392241 0.130095
0.0342886 0.16080868 0.030920483 0.28820214
00000000: c9b9 0b3e 24d9 d73c 20df a53c 7178 ef3d
00000010: 3863 ce3d 3a7e e33d 3af2 0a3d a037 053e
00000020: 3472 0c3d 08ab 243e f44c fd3c 3b8f 933e

convblock3.0.weight f4 [8, 12, 1, 1]
0.19130231 -0.2156871 0.19247593 -0.25100875 0.10203178 -0.18555294 -0.034140453 -0.058163594
-0.13906078 -0.04877261 -0.17756341 -0.2815655 0.09151521 -0.16544749 -0.16586019 -0.11555802
-0.33342606 -0.262461 0.12823297 0.08251828 0.032645743 -0.19654498 0.01488036 0.0071214247
-0.3167603 0.07627479 0.2475179 -0.26441103 -0.34908688 0.05234347 0.109495856 -0.16122018
0.13862301 0.21750073 0.14632699 -0.021510875 0.2937701 0.16481152 -0.14265847 0.03599302
0.11564261 0.22835237 -0.22774112 0.16283458 0.012695659 -0.18970162 0.034113113 -0.20942827
0.01636208 -0.16072111 -0.21541387 -0.086899474 -0.16229086 0.17611462 0.016232384 0.19316596
0.14204939 -0.024205701 0.1929583 -0.019157484 -0.011700762 0.005121066 0.07881548 -0.12591417
-0.07520654 -0.28468022 -0.062973075 -0.17839867 0.019541088 0.21626928 -0.27665684 -0.26960558
0.017284004 0.02171729 0.0027130654 0.074215844 0.040091094 -0.081626154 -0.050751965 0.27454332
0.23491524 -0.052804995 -0.11505369 0.036802534 0.077322364 -0.08905101 -0.32913983 0.06469791
-0.09471628 -0.28085187 -0.23511936 0.115382835 -0.2634722 0.20914888 0.22443518 -0.062018286
00000000: c1e4 433e 14dd 5cbe 6918 453e 3884 80be
00000010: 0af6 d03d 9701 3ebe dcd6 0bbd f33c 6ebd
00000020: f365 0ebe cac5 47bd 2fd3 35be 5a29 90be
00000030: 546c bb3d 116b 29be 41d7 29be afa9 ecbd
00000040: d2b6 aabe 4a61 86be 814f 033e 58ff a83d
00000050: 8bb7 053d 1643 49be c1cc 733c d75a e93b
00000060: 682e a2be f535 9c3d 5575 7d3e e260 87be
00000070: 84bb b2be 1b66 563d 5d3f e03d e716 25be
00000080: 31f3 0d3e 83b8 5e3e bed6 153e 9337 b0bc
00000090: 0969 963e 5ac4 283e 1015 12be 6b6d 133d
000000a0: 08d6 ec3d 34d5 693e f834 69be 1cbe 263e
000000b0: 7401 503c 2441 42be 31ba 0b3d 5d74 56be
000000c0: c509 863c 1394 24be 7495 5cbe 5af8 b1bd
000000d0: 932f 26be 6457 343e c7f9 843c 4ccd 453e
000000e0: 6575 113e 094b c6bc dc96 453e 28f0 9cbc
000000f0: 8eb4 3fbc 9dce a73b 036a a13d a5ef 00be
00000100: e305 9abd 9bc1 91be 07f8 80bd 24ae 36be
00000110: a214 a03c b275 5d3e f7a5 8dbe be09 8abe
00000120: 2f97 8d3c 75e8 b13c afcd 313b 7afe 973d
00000130: 8f36 243d 9d2b a7bd 4be1 4fbd f190 8c3e
00000140: 9f8d 703e 0d4a 58bd 45a1 ebbd 41be 163d
00000150: 305b 9e3d 6060 b6bd 0485 a8be 5680 843d
00000160: 9cfa c1bd d1cb 8fbe 21c3 70be d64d ec3d
00000170: d4e5 86be 202b 563e 56d2 653e e306 7ebd

convblock4.0.weight f4 [12, 8, 3, 3]
0.011915498 0.022223284 0.025782626 0.014560294 -0.045867532 0.024049707 -0.026636615 0.049853805
-0.13857244 0.073223524 -0.0073486622 -0.021262383 0.028964829 0.042026494 0.109991446 0.022358224
-0.13188429 0.008483616 -0.05662016 -0.05606573 0.12568913 0.030631406 -0.1201267 0.0013589966
0.03404845 0.0066691414 0.0676139 -0.09960934 -0.04054884 0.109905295 -0.038360476 0.029501392
-0.08453121 -0.08806743 -0.06805887 -0.09606808 -0.07133054 0.079502106 0.06717615 -0.031958174
0.019840855 -0.041527912 0.04435666 -0.10684968 -0.14430171 -0.021016596 0.11890444 0.06963557
0.028174985 -0.078907005 0.055870127 -0.039773412 0.014639666 0.06388469 -0.11861633 -0.038991854
-0.005537345 -0.09527166 -0.08748952 0.10178605 -0.103079826 0.030650632 -0.06297578 -0.11936489
-0.11557365 -0.18229486 0.059247326 0.017415226 -0.014184659 0.026815915 0.10108985 0.045557115
-0.049222942 0.0742731 -0.045769066 -0.123280406 0.059801456 0.028369576 -0.094736055 -0.11855037
-0.00013685465 0.10848324 -0.04440789 -0.05351101 -0.028801722 -0.12733404 -0.03841155 -0.097514376
-0.040266715 -0.042347264 0.008948662 0.034334663 -0.12600678 -0.0026817324 -0.08746068 -0.12663122
0.0040551145 -0.11086764 -0.1367954 0.062652245 -0.0067543513 0.05319425 -0.06816518 -0.07890819
-0.02136551 -0.045330547 0.09300185 -0.08360939 0.08775617 0.080419995 -0.100668 -0.014632968
0.028184803 -0.08975051 0.015505756 -0.10862966 0.09034854 -0.053216357 0.07496721 -0.11090513
-0.10875451 -0.043408163 0.0946815 -0.18577811 -0.049563218 0.12353479 -0.046979386 0.02069839
-0.08575623 -0.08588493 -0.057199653 0.1096681 0.009879009 -0.057570815 0.04095159 0.050637905
-0.035454996 -0.030293943 -0.07518755 0.060519915 -0.014946438 -0.12528734 0.0024741634 0.055189114
-0.04401879 -0.023596385 -0.0024482335 -0.09159417 -0.025413731 -0.02354002 0.1238592 -0.05487987
-0.026466694 -0.2218169 -0.023910282 0.19653618 0.099553265 -0.0515465 0.04933678 0.08170502
0.0048664613 0.09536145 -0.00025376005 -0.056703817 0.11426061 -0.08311959 0.050730877 -0.051023714
-0.0039613172 0.08870743 0.04225598 -0.23582074 -0.04611362 0.03783712 -0.07033389 0.10508462
-0.007375204 -0.043172266 -0.007849249 -0.033631437 -0.015276221 -0.10657924 -0.09727743 -0.1409139
-0.0018121178 0.024257561 -0.12687089 -0.059536688 0.030195525 0.033015464 -0.0024395983 0.0481218
-0.005587677 0.09320143 -0.0517142 0.06437029 0.09536462 -0.047065202 0.023047734 0.1331395
-0.05939045 -0.011968486 0.030464947 -0.12321078 0.058697578 -0.044998806 0.020283757 -0.2332613
-0.14862163 0.010526959 0.049245212 0.004624915 -0.0033077467 -0.00758501 0.019483723 0.035096142
0.088603996 -0.023116047 0.14479953 0.11975397 0.0555934 -0.04800234 0.02671626 0.002891042
0.04311018 -0.12842216 0.032045476 0.11697799 -0.10780981 -0.06546293 0.11794661 -0.14072105
-0.059383117 0.04780155 0.057255007 0.18774627 0.12632503 0.061154887 -0.013299983 0.05597433
-0.15432128 -0.07720334 -0.08773477 -0.04298973 0.07727235 0.06619387 0.055205576 0.031744536
-0.06315768 -0.048037585 -0.065251134 0.0082211625 0.11696272 -0.0154156685 0.01931405 0.074288905
00000000: 3939 433c 9b0d b63c 1636 d33c 4d8e 6e3c
00000010: 98df 3bbd e403 c53c 0835 dabc 8133 4c3d
00000020: efe5 0dbe 37f6 953d 0ccd f0bb 732e aebc
00000030: a647 ed3c f923 2c3d 3243 e13d 9828 b73c
00000040: ad0c 07be ddfe 0a3c 8aea 67bd 2ea5 65bd
00000050: a7b4 003e b7ee fa3c fd04 f6bd 5c20 b23a
00000060: 6376 0b3d d088 da3b 2879 8a3d fbff cbbd
00000070: 8a16 26bd 0716 e13d e01f 1dbd e7ac f13c
00000080: b31e adbd b25c b4bd 7362 8bbd 57bf c4bd
00000090: bf15 92bd 00d2 a23d a693 893d 93e6 02bd
000000a0: 4a89 a23c 2c19 2abd 54af 353d 01d4 dabd
000000b0: d4c3 13be ff2a acbc 2c84 f33d 189d 8e3d
000000c0: 3acf e63c ff99 a1bd 13d8 643d 72e9 22bd
000000d0: 36db 6f3c fad5 823d 1eed f2bd ecb5 1fbd
000000e0: 9e72 b5bb ca1d c3bd b52d b3bd 3475 d03d
000000f0: 841b d3bd 0917 fb3c 72f9 80bd 9475 f4bd
00000100: e1b1 ecbd 81ab 3abe 53ad 723d 60aa 8e3c
00000110: c666 68bc 0dad db3c 3208 cf3d 199a 3a3d
00000120: ff9d 49bd 7f1c 983d 5878 3bbd 707a fcbd
00000130: 5ff2 743d 5067 e83c fa04 c2bd 89ca f2bd
00000140: a480 0fb9 762c de3d 0ce5 35bd 5c2e 5bbd
00000150: 97f1 ebbc db63 02be 6e55 1dbd 9eb5 c7bd
00000160: b6ee 24bd 5374 2dbd 699d 123c 81a2 0c3d
00000170: ec07 01be 01c0 2fbb 961e b3bd 9dab 01be
00000180: c4e0 843b 930e e3bd 1814 0cbe d24f 803d
00000190: 9b53 ddbb 37e2 593d 309a 8bbd 9e9a a1bd
000001a0: b906 afbc 86ac 39bd c177 be3d 663b abbd
000001b0: 82b9 b33d 3db3 a43d 062b cebd 1ebf 6fbc
000001c0: d1e3 e63c 1ecf b7bd db0b 7e3c 3a79 debd
000001d0: a808 b93d 65f9 59bd 6988 993d 3b22 e3bd
000001e0: afba debd c2cc 31bd 60e8 c13d 9e3c 3ebe
000001f0: cd02 4bbd cfff fc3d 756d 40bd ac8f a93c
00000200: f6a0 afbd 70e4 afbd 2f4a 6abd ab99 e03d
00000210: 91db 213c 60cf 6bbd dbbc 273d b169 4f3d
00000220: 4239 11bd 012b f8bc eefb 99bd bbe3 773d
00000230: e8e1 74bc 534b 00be 9325 223b fb0d 623d
00000240: 0c4d 34bd 354d c1bc 8b72 20bb b995 bbbd
00000250: 7530 d0bc 00d7 c0bc e4a9 fd3d b7c9 60bd
00000260: aed0 d8bc f823 63be 7fdf c3bc c840 493e
00000270: 95e2 cb3d 6c22 53bd 5d15 4a3d f654 a73d
00000280: d676 9f3b dd4c c33d 190b 85b9 4342 68bd
00000290: 7701 ea3d 9b3a aabd 2ecb 4f3d 3efe 50bd
000002a0: f0cd 81bb 3eac b53d 9b14 2d3d fe7a 71be
000002b0: a3e1 3cbd 19fb 1a3d 370b 90bd 9b36 d73d
000002c0: b2ab f1bb 67d5 30bd 239a 00bc 1ec1 09bd
000002d0: 1d49 7abc 3746 dabd 6439 c7bd bc4b 10be
000002e0: 9584 edba cbb7 c63c 71ea 01be bedc 73bd
000002f0: 9b5c f73c 393b 073d abe1 1fbb 5d1b 453d
00000300: d518 b7bb 64e0 be3d 45d2 53bd 92d4 833d
00000310: 874e c33d 71c7 40bd 9ace bc3c b955 083e
00000320: 6743 73bd 7817 44bc a091 f93c ef55 fcbd
00000330: df6c 703d ab50 38bd 1f2a a63c 0ddc 6ebe
00000340: 4530 18be 4479 2c3c 59b5 493d 998c 973b
00000350: c8c6 58bb ad8b f8bb 549c 9f3c f9c0 0f3d
00000360: 0376 b53d dd5d bdbc 5446 143e 9241 f53d
00000370: e8b5 633d 1a9e 44bd 0fdc da3c a377 3d3b
00000380: 4d94 303d 1981 03be 1e42 033d 2892 ef3d
00000390: 64cb dcbd 6e11 86bd fe8d f13d 2e19 10be
000003a0: b63b 73bd 8fcb 433d 3a84 6a3d 8f40 403e
000003b0: 595b 013e 8c7d 7a3d 2ce8 59bc 5745 653d
000003c0: 6606 1ebe c91c 9ebd 49ae b3bd 0016 30bd
000003d0: f740 9e3d a790 873d 3e1f 623d 8f06 023d
000003e0: d058 81bd 0fc3 44bd 63a2 85bd 0eb2 063c
000003f0: 278a ef3d 0092 7cbc 8038 9e3c c824 983d

convblock4.2.weight f4 [12]
1.0461575 0.8850183 1.081591 0.94570225 0.8758651 0.97039884 0.9630346 0.98341244
1.006139 1.0095037 0.94960994 1.1006277
00000000: 7de8 853f 8f90 623f 9371 8a3f 8b19 723f
00000010: b238 603f 0f6c 783f 6f89 763f ebc0 7b3f
00000020: 2ac9 803f 6b37 813f a319 733f 5ee1 8c3f

convblock4.2.bias f4 [12]
0.06186525 0.025497083 0.07347582 0.20140621 0.07220515 0.054161407 0.24532434 0.097709544
0.17277151 0.13744724 0.09677563 0.28023934
00000000: 6b66 7d3d 42df d03c 7e7a 963d 6e3d 4e3e
00000010: 4be0 933d 5ad8 5d3d 4e36 7b3e f11b c83d
00000020: 04eb 303e f8be 0c3e 4d32 c63d 887b 8f3e

convblock4.2.running_mean f4 [12]
0.038681943 0.0034437568 0.07741992 0.10649996 0.13672721 0.030423488 0.08823786 0.066205196
0.051438373 0.055139877 0.35053998 0.15245248
00000000: f570 1e3d a7b0 613b 568e 9e3d a71c da3d
00000010: 3802 0c3e ae3a f93c 0db6 b43d 9796 873d
00000020: 0bb1 523d 5ada 613d fa79 b33e 811c 1c3e

convblock4.2.running_var f4 [12]
0.0074324333 0.000630647 0.021801384 0.0446406 0.069135405 0.015749022 0.02581357 0.028001914
0.0106724035 0.021567192 0.122148 0.043681998
00000000: c58b f33b 0152 253a d198 b23c 10d9 363d
00000010: dd96 8d3d 1804 813c fb76 d33c 4564 e53c
00000020: 4edb 2e3c aead b03c bb28 fa3d e5eb 323d

convblock5.0.weight f4 [16, 12, 3, 3]
-0.0017842989 0.03877551 0.20474021 -0.0019146157 -0.019606287 -0.0091025615 -0.081751145 -0.037298463
-0.014070935 -0.044809617 -0.027766842 -0.014852354 -0.024415227 0.0331084 -0.045160335 -0.06664675
-0.005118262 -0.016206972 0.051116183 0.10113043 0.0682251 -0.010891558 -0.025867661 0.06419679
-0.08297024 -0.092667565 -0.0034222126 0.108457476 0.017578868 0.100473896 -0.021026611 0.021275941
0.0030269744 -0.051471278 -0.11225987 -0.09834613 -0.061073925 0.032022454 0.07496094 -0.073030576
0.027375363 0.06634683 -0.09514985 -0.052702095 -0.016049713 0.025032097 -0.08643732 -0.04152882
0.013978788 0.039149046 0.017407613 0.04861952 0.05404181 -0.11599971 -0.0066759777 0.048553787
0.14734443 -0.054240134 -0.033456624 -0.05773403 0.040876407 -0.03071275 -0.03694816 0.0025058598
0.05406273 -0.09047377 -0.029268222 0.081920184 -0.09370538 0.030381411 -0.027065907 -0.053941265
-0.046137877 0.0395324 0.04373402 -0.045134075 0.06739496 -0.010750426 -0.0376395 -0.016729537
0.052441295 0.08447884 -0.0034244251 -0.0033055982 -0.03775725 -0.051074967 0.03069127 0.06130411
0.065025166 -0.007364752 0.073302954 -0.049196124 0.061079025 0.09824948 -0.090091914 -0.0391661
0.042162944 -0.027892977 -0.06953768 0.07373751 0.0037400816 0.052088883 -0.064082384 0.026427427
0.025307504 -0.048416175 -0.03396943 0.0039646393 0.0070532127 -0.030222377 0.1160734 0.037616573
-0.06465645 0.11040509 -0.09307996 0.035286848 -0.029097987 -0.03204259 -0.0047806227 -0.030741772
-0.004696513 0.06005204 -0.051708717 -0.046313923 0.0038990302 -0.058838826 -0.031976394 -0.059989378
0.07604218 -0.016395707 0.053268448 -0.03257204 0.0015474977 0.060517304 -0.019804114 0.021506324
-0.059063245 0.049650583 -0.07472561 0.024474602 0.04353747 -0.11863916 0.03993845 0.003463096
-0.061281163 -0.002352134 0.06939318 0.023036936 0.01348424 0.015722696 -0.018926222 -0.07763613
-0.028210394 -0.021878224 -0.07724926 0.08526954 -0.048048962 -0.043260545 0.046492442 -0.041839756
0.026671575 0.06580545 -0.11064313 0.013474555 0.041133884 -0.0032472229 -0.059825476 0.017138354
0.026798565 0.09739866 -0.052965377 -0.018458655 -0.06453309 -0.011332508 -0.010656884 0.034730796
-0.033891138 0.032330982 0.027695855 -0.0009244482 0.042654265 -0.033086315 0.052843086 0.016136348
-0.03680857 -0.07437378 -0.06377877 0.022727983 -0.041536402 -0.0025553233 -0.010802714 0.17673275
-0.09424216 -0.043125823 -0.008143218 -0.16356337 0.058702987 -0.017767565 0.0060578664 -0.023296362
0.07655328 0.023050394 -0.0906507 0.09866723 -0.1149052 -0.009903066 -0.019455682 -0.087341584
0.041017618 0.1559928 -0.060994886 -0.07593955 0.06701826 -0.015663378 -0.02797987 -0.02572383
0.02534228 0.025969196 -0.07836085 0.0197253 -0.06128182 -0.0532714 0.06712427 -0.01612501
-0.0072011207 -0.033772394 -0.037020665 -0.023542497 -0.01681078 0.019654354 -0.022456232 -0.011687835
-0.025131997 -0.08820971 -0.019710233 -0.029453909 -0.19276835 0.08204134 -0.0138372965 0.013274213
0.08847882 -0.04345199 0.064162634 0.08809614 -0.06124267 0.05849653 -0.06815149 -0.06180896
-0.08189304 0.008489062 0.027365256 -0.052222293 -0.0814613 -0.033949967 0.006808022 0.09181274
00000000: 23df e9ba 12d3 1e3d 6ba7 513e d8f3 faba
00000010: 5d9d a0bc e922 15bc 256d a7bd 46c6 18bd
00000020: c789 66bc 4a8a 37bd 4a77 e3bc 4a57 73bc
00000030: 7102 c8bc ac9c 073d 0bfa 38bd 177e 88bd
00000040: 18b7 a7bb 7cc4 84bc 345f 513d 791d cf3d
00000050: 9ab9 8b3d 8172 32bc 6be8 d3bc 9b79 833d
00000060: 4dec a9bd 7ec8 bdbd 3347 60bb f41e de3d
00000070: 8f01 903c 42c5 cd3d 0040 acbc e24a ae3c
00000080: 3460 463b 8cd3 52bd 81e8 e5bd b269 c9bd
00000090: a728 7abd fa29 033d 1f85 993d 0e91 95bd
000000a0: 4c42 e03c d9e0 873d eddd c2bd 27de 57bd
000000b0: b07a 83bc 1d10 cd3c 0d06 b1bd 201a 2abd
000000c0: 4907 653c c05a 203d 699a 8e3c 4325 473d
000000d0: f25a 5d3d 4291 edbd 29c2 dabb 56e0 463d
000000e0: 75e1 163e e72a 5ebd d009 09bd 857a 6cbd
000000f0: 056e 273d 4e99 fbbc f456 17bd 5a39 243b
00000100: e270 5d3d 504a b9bd e9c3 efbc c5c5 a73d
00000110: 9be8 bfbd 70e2 f83c 52b9 ddbc 84f1 5cbd
00000120: 12fb 3cbd baec 213d 7222 333d 82de 38bd
00000130: 5e06 8a3d 8e22 30bc e02b 1abd 620c 89bc
00000140: afcc 563d 3e03 ad3d 526c 60bb bca2 58bb
00000150: 59a7 1abd fc33 51bd 426c fb3c 051a 7b3d
00000160: ea2b 853d 0454 f1bb dc1f 963d e081 49bd
00000170: 002e 7a3d 0637 c93d 1c82 b8bd a26c 20bd
00000180: 0db3 2c3d d07f e4bc c569 8ebd b103 973d
00000190: 281c 753b 275b 553d a03d 83bd 557e d83c
000001a0: af51 cf3c 0a50 46bd 8723 0bbd cee9 813b
000001b0: a31e e73b eb94 f7bc e4b7 ed3d d613 1a3d
000001c0: 9a6a 84bd 101c e23d b5a0 bebd f188 103d
000001d0: e75e eebc 173f 03bd c5a6 9cbb 2bd6 fbbc
000001e0: 35e5 99bb 21f9 753d 85cc 53bd abb3 3dbd
000001f0: df86 7f3b fb00 71bd aef9 02bd 6cb7 75bd
00000200: 01bc 9b3d 4a50 86bc 0430 5a3d 426a 05bd
00000210: 68d5 ca3a fee0 773d 3d3c a2bc 082e b03c
00000220: 4dec 71bd 695e 4b3d be09 99bd f67e c83c
00000230: 5954 323d 17f9 f2bd 8096 233d 1cf5 623b
00000240: f501 7bbd 4326 1abb 031e 8e3d f5b7 bc3c
00000250: 00ed 5c3c e2cc 803c 2a0b 9bbc b1ff 9ebd
00000260: 7c19 e7bc f639 b3bc dc34 9ebd cca1 ae3d
00000270: fdce 44bd f831 31bd dc6e 3e3d 2a60 2bbd
00000280: 597e da3c 02c5 863d de98 e2bd 61c4 5c3c
00000290: 017c 283d 5ccf 54bb 8f0b 75bd bc65 8c3c
000002a0: aa88 db3c f378 c73d 39f2 58bd 9b36 97bc
000002b0: ed29 84bd fcab 39bc 369a 2ebc e141 0e3d
000002c0: 6fd1 0abd 7e6d 043d 6be2 e23c ab56 72ba
000002d0: 3db6 2e3d 8485 07bd fe71 583d 6030 843c
000002e0: 95c4 16bd 4851 98bd 729e 82bd 0930 ba3c
000002f0: 1322 2abd 3677 27bb defd 30bc 6ef9 343e
00000300: 0902 c1bd b4a4 30bd 226b 05bc 287d 27be
00000310: 8b72 703d 498d 91bc 1181 c63b 03d8 bebc
00000320: f7c7 9c3d 2ed4 bc3c 13a7 b9bd 0b12 ca3d
00000330: 6b53 ebbd 7840 22bc 8661 9fbc 25e0 b2bd
00000340: 1702 283d 94bc 1f3e c6d5 79bd 3286 9bbd
00000350: df40 893d 7c50 80bc 0a36 e5bc c8ba d2bc
00000360: 9d9a cf3c 5abd d43c a77b a0bd f496 a13c
00000370: a502 7bbd 1d33 5abd 7378 893d 9918 84bc
00000380: 61f7 ebbb ec54 0abd fba2 17bd 32dc c0bc
00000390: c3b6 89bc 2b02 a13c 22f6 b7bc 557e 3fbc
000003a0: 9ee1 cdbc 4ba7 b4bd 5b77 a1bc 5349 f1bc
000003b0: 1165 45be 4a05 a83d d4b5 62bc 167c 593c
000003c0: 6234 b53d b7fa 31bd b367 833d c06b b43d
000003d0: 98d9 7abd 0f9a 6f3d 0293 8bbd 642b 7dbd
000003e0: 8ab7 a7bd b515 0b3c 1a2d e03c 0be7 55bd
000003f0: 2fd5 a6bd 1f0f 0bbd d415 df3b 5108 bc3d

convblock5.2.weight f4 [16]
1.1098636 1.1795539 1.1680031 1.2453278 1.1497476 1.1909945 1.0688056 1.2895463
1.0632049 1.1518745 1.1028848 1.0796392 1.1757644 1.0830606 1.1453317 1.0864983
00000000: 0310 8e3f 9ffb 963f 2081 953f e766 9f3f
00000010: ee2a 933f 8272 983f 9fce 883f da0f a53f
00000020: 1917 883f a070 933f 542b 8d3f 9e31 8a3f
00000030: 737f 963f bba1 8a3f 3b9a 923f 6012 8b3f

convblock5.2.bias f4 [16]
0.07036029 0.10109747 0.033943005 0.0664739 -0.047592316 -0.092471614 0.015132241 -0.00047247307
0.039453205 0.088474356 0.044064056 0.0716614 0.07712799 0.094656296 0.046825662 -0.012152874
00000000: 0e19 903d 310c cf3d d207 0b3d 7823 883d
00000010: 29f0 42bd c261 bdbd 38ed 773c 43b6 f7b9
00000020: af99 213d 0b32 b53d 837c 343d 36c3 923d
00000030: 48f5 9d3d 29db c13d 44cc 3f3d d91c 47bc

convblock5.2.running_mean f4 [16]
0.23090266 0.17148162 0.1850166 0.19817236 0.21899562 0.17659976 0.221617 0.16891113
0.19251533 0.2679155 0.24385212 0.26076895 0.23396766 0.2788584 0.23661137 0.21345164
00000000: bf71 6c3e e198 2f3e fe74 3d3e b2ed 4a3e
00000010: 6340 603e 91d6 343e 91ef 623e 0af7 2c3e
00000020: bd22 453e 382c 893e 5fb4 793e 8283 853e
00000030: 3895 6f3e 87c6 8e3e 404a 723e 1193 5a3e

convblock5.2.running_var f4 [16]
0.14528927 0.11638236 0.088306434 0.13050942 0.12134449 0.12680821 0.15761006 0.1285758
0.119070664 0.1895358 0.14733444 0.17003256 0.13436148 0.21089093 0.13522336 0.13118286
00000000: b6c6 143e e059 ee3d 01da b43d 43a4 053e
00000010: 7683 f83d 03da 013e 8864 213e 60a9 033e
00000020: 52db f33d ac15 423e d7de 163e 041d 2e3e
00000030: 0e96 093e cbf3 573e fe77 0a3e cd54 063e

convblock6.0.weight f4 [32, 16, 3, 3]
0.029299622 -0.07675772 -0.04908974 -0.025294045 -0.08083234 -0.0006554149 0.022891743 -0.0075279223
0.0589098 0.08986834 -0.037888404 -0.27319053 0.037790935 -0.02523222 -0.2193468 0.012913481
-0.028540894 -0.12958995 -0.13832383 -0.04297155 0.040775277 -0.11596814 -0.020106824 -0.035903882
-0.05965248 0.04125013 0.03137546 -0.16444755 0.07082322 0.04381615 -0.08254469 -0.031568345
0.124206804 -0.012200704 0.0717026 0.111070395 0.07057477 0.023092888 -0.11015412 0.13117974
-0.054753873 -0.013617249 0.060318824 0.028956749 -0.12875347 0.028702984 0.03804765 -0.040770404
0.0037075544 0.018651498 -0.108867474 -0.01086775 0.025177952 0.007751694 0.062616765 -0.030768346
0.02002551 -0.039846335 -0.01677221 -0.033038273 0.06254731 -0.0018929796 0.042321973 0.11115112
0.015070708 -0.033885796 0.016034903 -0.10129443 -0.047388963 0.0013792465 -0.089236654 0.03823948
-0.11132661 -0.110531524 -0.07156462 -0.12586984 0.0029065034 -0.009530365 -0.064710446 -0.06664659
0.09292917 -0.112248786 0.059353486 0.16146317 -0.13835104 0.07708606 0.073431805 0.02192043
0.06980803 0.008371108 0.08273395 0.09310995 -0.0028048644 0.042317495 -0.08021343 -0.040770233
0.04844445 0.07078621 0.039808717 -0.07358392 -0.091464944 -0.10114739 -0.0073752594 0.061200395
0.024660608 0.0036934223 0.0803117 0.055453625 -0.11222371 -0.04781159 0.054731987 -0.011336317
0.023934891 0.12062984 0.061685275 0.03600634 0.15401979 0.052527364 0.07014551 0.06317556
-0.027666086 -0.038830545 0.053172056 -0.07503904 0.042329423 -0.017923502 0.07396869 0.027952699
-0.047248103 0.07879868 -0.025046544 -0.004454122 0.044244274 -0.0016519026 -0.015489446 -0.00768375
-0.10989999 -0.1114761 0.041989274 -0.028454578 -0.048314296 -0.023553064 -0.06474773 -0.07186463
0.14836943 -0.030530013 -0.068405494 0.03963099 -0.035540868 -0.06549223 0.079391204 0.02372789
-0.06297504 -0.01363906 -0.037524447 -0.14196526 -0.019543178 0.09064477 -0.02122828 0.14020337
-0.0031195588 -0.024463901 0.009672806 -0.024945531 0.19117948 0.025137233 0.035869233 -0.02285733
-0.019751478 -0.032182477 -0.072673894 0.09192056 0.11706647 0.14165114 -0.08995336 0.072602905
-0.013292419 -0.05252001 -0.1311681 -0.11437401 -0.12029882 0.015340457 -0.065780774 0.060026966
0.044264983 0.036523413 0.02970046 0.012059556 -0.032497335 -0.12894613 0.06948894 0.06637288
-0.102322586 -0.09225208 0.039986774 -0.12777232 -0.0140335085 0.06285546 -0.015778797 0.04346919
-0.08001851 -0.040214803 -0.07201409 0.022762852 -0.06372623 0.047047637 0.010672503 -0.045814198
-0.08076893 0.12036676 -0.11263956 -0.04712093 0.10150432 0.020175774 -0.012707883 0.022812666
-0.049693663 -0.05572385 0.01845803 0.04560125 0.0060937908 0.020288402 -0.09320043 0.013374031
-0.03220562 0.07780891 0.05236908 0.06037183 0.030833244 0.06405557 0.051845856 -0.035500087
-0.017829074 -0.062086858 -0.034716908 -0.021350114 0.03978364 -0.013311552 -0.03905378 0.049157277
0.09208114 0.13470328 0.08696297 0.092262305 0.07640875 -0.08277121 0.117605925 0.061680052
0.03297985 0.070017494 -0.05790953 0.03436388 0.17869584 0.0077926214 0.019947035 -0.0018015563
00000000: c305 f03c 2733 9dbd 5312 49bd 7535 cfbc
00000010: 6d8b a5bd 26d0 2bba 7787 bb3c caac f6bb
00000020: 674b 713d e40c b83d df30 1bbd a1df 8bbe
00000030: abca 1a3d cdb3 cebc 739c 60be 1193 533c
00000040: 98ce e9bc 3ab3 04be c3a4 0dbe f002 30bd
00000050: fa03 273d b480 edbd 11b7 a4bc f30f 13bd
00000060: 2956 74bd e5f5 283d 8e83 003d f064 28be
00000070: c40b 913d 9078 333d 310d a9bd cf4d 01bd
00000080: 2360 fe3d 76e5 47bc d0d8 923d e078 e33d
00000090: 8189 903d 4c2d bd3c 7c98 e1bd fb53 063e
000000a0: 9945 60bd e21a 5fbc df10 773d b436 ed3c
000000b0: f3d7 03be 8522 eb3c dad7 1b3d defe 26bd
000000c0: 71fa 723b 07cb 983c e9f5 debd a60e 32bc
000000d0: fe41 ce3c ec01 fe3b 383d 803d e60d fcbc
000000e0: 8a0c a43c e935 23bd e065 89bc 2453 07bd
000000f0: ce18 803d db1d f8ba ce59 2d3d 33a3 e33d
00000100: 21eb 763c d5cb 0abd a15b 833c 7473 cfbd
00000110: ee1a 42bd d5c7 b43a b5c1 b6bd 00a1 1c3d
00000120: 35ff e3bd 5a5e e2bd 7990 92bd 06e4 00be
00000130: 097b 3e3b 3f25 1cbc e986 84bd 027e 88bd
00000140: a651 be3d b1e2 e5bd a41c 733d 9a56 253e
00000150: e5ab 0dbe 4cdf 9d3d 6a63 963d 7992 b33c
00000160: 83f7 8e3d f926 093c 6b70 a93d 6eb0 be3d
00000170: d1d1 37bb 1c55 2d3d f046 a4bd b0fe 26bd
00000180: b06d 463d 5cf8 903d 770e 233d 2bb3 96bd
00000190: f951 bbbd 5d26 cfbd 29ac f1bb 44ad 7a3d
000001a0: 0b05 ca3c 580d 723b 767a a43d 5723 633d
000001b0: 8bd5 e5bd 16d6 43bd a62e 603d f6bb 39bc
000001c0: 1b13 c43c c70c f73d b3a9 7c3d 627b 133d
000001d0: 5db7 1d3e ef26 573d 73a8 8f3d 3062 813d
000001e0: fda3 e2bc c70c 1fbd f1ca 593d 11ae 99bd
000001f0: 9e61 2d3d 4fd4 92bc e67c 973d 0ffd e43c
00000200: 3a87 41bd 3461 a13d 692e cdbc e2f3 91bb
00000210: 7c39 353d a784 d8ba 72c7 7dbc f7c7 fbbb
00000220: 3f13 e1bd 954d e4bd f2fc 2b3d 9319 e9bc
00000230: 36e5 45bd 5bf2 c0bc 759a 84bd c32d 93bd
00000240: 28ee 173e 141a fabc 2e18 8cbd 1b54 223d
00000250: 4d93 11bd ca20 86bd db97 a23d fe60 c23c
00000260: 0ff9 80bd 5d76 5fbc 3cb3 19bd 575f 11be
00000270: 0419 a0bc f7a3 b93d eee6 adbc 7991 0f3e
00000280: 8371 4cbb 8568 c8bc b07a 1e3c 925a ccbc
00000290: 8ec4 433e 99ec cd3c 9eeb 123d 4c3f bbbc
000002a0: dacd a1bc c6d1 03bd 0dd6 94bd d940 bc3d
000002b0: 8cc0 ef3d ff0c 113e 7839 b8bd d5b0 943d
000002c0: 72c8 59bc 391f 57bd ee50 06be ec3c eabd
000002d0: 3a5f f6bd 8a56 7b3c 12b8 86bd d6de 753d
000002e0: 334f 353d 9399 153d 614e f33c 7295 453c
000002f0: ed1b 05bd 740a 04be 3850 8e3d 81ee 873d
00000300: 818e d1bd a9ee bcbd 2cc9 233d bfd6 02be
00000310: cdec 65bc 5dba 803d 8942 81bc c00c 323d
00000320: bfe0 a3bd 47b8 24bd 207c 93bd 2979 ba3c
00000330: e682 82bd 06b5 403d b9db 2e3c aba7 3bbd
00000340: 2e6a a5bd d982 f63d 92af e6bd e001 41bd
00000350: 7fe1 cf3d aa47 a53c b934 50bc a1e1 ba3c
00000360: 958b 4bbd b13e 64bd 4b35 973c 60c8 3a3d
00000370: 6cae c73b dd33 a63c dedf bebd c01e 5b3c
00000380: 0aea 03bd 475a 9f3d f680 563d 7448 773d
00000390: 0096 fc3c 912f 833d 525c 543d 8a68 11bd
000003a0: 470e 92bc ca4e 7ebd 5133 0ebd 6fe6 aebc
000003b0: 2cf4 223d b218 5abc dbf6 1fbd 2459 493d
000003c0: 0995 bc3d a8ef 093e a419 b23d 05f4 bc3d
000003d0: 317c 9c3d f483 a9bd 60db f03d 39a4 7c3d
000003e0: e115 073d 5565 8f3d 8b32 6dbd 24c1 0c3d
000003f0: 0bfc 363e 3f59 ff3b f767 a33c 3322 ecba

fc1.weight f4 [400, 35]
-0.17886758 -0.0683332 -0.14143863 -0.15237096 -0.17135584 0.102405325 -0.06441291 0.047961015
0.0434307 0.050069813 -0.1676285 -0.03477 0.0015246755 -0.043318707 0.10161356 0.13553442
-0.08631884 -0.112215675 -0.12922728 -0.14433125 -0.09407013 -0.013950081 0.033850532 -0.13469118
-0.11317495 0.09479754 0.056419827 0.026551872 -0.00644922 -0.2219844 0.09929846 0.01902391
-0.17206773 0.12625702 0.08928692 0.0715602 0.1685706 -0.041784916 0.26829708 0.03635227
-0.20153308 0.07245809 -0.00018158315 0.03193887 -0.10035398 0.092001565 -0.005354318 -0.07741389
-0.15106373 0.1406693 -0.11169047 0.1969982 0.16985303 -0.101924896 -0.14984529 0.017139101
-0.02293926 -0.045774173 0.11715003 -0.10458554 0.100639 0.032801338 0.13159774 -0.31041253
0.19374466 -0.04905705 -0.17230035 0.03935005 0.16432849 0.03698045 -0.040150404 0.11227201
0.115024306 0.11154394 0.017502964 0.018745476 0.09340683 0.17714505 0.082129404 -0.13653278
0.02376108 0.091802426 -0.12826262 0.083659306 0.119896814 -0.016765852 0.20175393 -0.020611688
0.23921421 -0.049095444 0.12484851 -0.08895488 -0.18633126 0.10490677 0.08349201 -0.18666397
0.109574266 -0.11028947 0.053710368 0.21446896 0.17259066 -0.014099442 0.017443446 -0.20834894
0.0641513 0.1292727 0.20661971 0.12103441 0.21046145 0.10866668 0.12534465 -0.12513995
-0.043067288 0.012165081 -0.01187611 0.1265796 0.1682723 -0.18560103 -0.015897293 -0.044451207
-0.13800699 0.013796978 0.21483189 0.21956086 0.030526105 -0.20147656 0.06070412 0.06696589
0.12447066 0.017967962 -0.20324744 0.12639771 -0.116107024 -0.027776675 0.20712574 0.09933797
0.12107716 0.33341402 -0.16881907 0.018384432 0.040981118 -0.044704255 -0.009246727 0.19279474
0.03479036 -0.1826106 -0.09850117 -0.07487113 0.030965995 0.2214847 -0.033669267 -0.18864551
0.23632151 -0.06979481 -0.0321644 0.058906578 0.059779786 -0.02135712 0.028258566 0.054928716
-0.1791306 0.1509548 0.06130437 -0.0158129 0.13198437 -0.07908146 -0.14590871 0.13688347
-0.11103734 -0.14458074 -0.1562237 -0.0137986345 0.26064116 -0.08135178 -0.011487762 0.17384277
0.061844736 -0.26658967 -0.12822373 -0.104510926 0.16258797 0.09357985 0.13077357 -0.0920882
0.100517005 0.13171314 -0.08749897 -0.15741521 -0.034120873 0.0030540782 -0.0854325 -0.22973052
-0.047262013 0.17179927 0.0032435907 -0.061959494 -0.10242872 0.09198211 0.009790845 -0.039005525
-0.19730976 0.20785253 -0.19289193 -0.14838484 0.209824 0.09993508 -0.03195017 -0.190484
0.19460599 -0.20752925 -0.062137954 -0.10045138 -0.15490346 0.09212442 -0.17906806 -0.09207775
0.11429254 0.15643935 -0.0071027344 0.16616175 -0.018066134 -0.21069807 -0.14620191 -0.10346846
0.016952604 0.16984467 -0.07762712 -0.08139701 0.102060094 -0.04621685 0.10225959 0.00391021
-0.091918916 -0.0912763 0.18660943 -0.040168073 -0.04532964 0.055564836 0.04607374 -0.074872494
-0.007988854 -0.080801375 0.06593309 -0.08293327 0.09664188 0.15761553 0.03728588 -0.017652228
-0.043926995 -0.060079895 0.1382295 0.06917416 0.17402022 0.21106714 -0.11458779 0.06289939
00000000: 1029 37be 47f2 8bbd 4ad5 10be 2207 1cbe
00000010: e877 2fbe e2b9 d13d eaea 83bd c572 443d
00000020: 64e4 313d 0116 4d3d cea6 2bbe fd6a 0ebd
00000030: 9fd7 c73a f56e 31bd c51a d03d 89c9 0a3e
00000040: efc7 b0bd 55d1 e5bd 2854 04be 92cb 13be
00000050: d7a7 c0bd e18e 64bc dba6 0a3d 7cec 09be
00000060: 45c8 e7bd 3625 c23d 7a18 673d 5083 d93c
00000070: fa53 d3bb e14f 63be fe5c cb3d 08d8 9b3c
00000080: 8632 30be 8549 013e 10dc b63d 278e 923d
00000090: c59d 2c3e a926 2bbd 3c5e 893e 1ee6 143d
000000a0: b05e 4ebe e864 943d 5b67 3eb9 55d2 023d
000000b0: 6386 cdbd 516b bc3d 4673 afbb 2c8b 9ebd
000000c0: 73b0 1abe 9d0b 103e f9bd e4bd e5b9 493e
000000d0: f4ed 2d3e 00be d0bd 0b71 19be 4d67 8c3c
000000e0: 1deb bbbc b37d 3bbd 5bec ef3d f230 d6bd
000000f0: d21b ce3d b25a 063d 8fc1 063e 64ee 9ebe
00000100: 0065 463e 0cf0 48bd 816f 30be 852d 213d
00000110: ba45 283e d078 173d c074 24bd deee e53d
00000120: dd91 eb3d 2671 e43d 6062 8f3c 1d90 993c
00000130: 154c bf3d 8365 353e 7633 a83d 40cf 0bbe
00000140: 99a6 c23c e902 bc3d 4757 03be 9255 ab3d
00000150: 768c f53d 8a58 89bc 9598 4e3e d8d9 a8bc
00000160: 92f4 743e 4e18 49bd 93b0 ff3d fa2d b6bd
00000170: 9fcd 3ebe 5cd9 d63d dcfd aa3d d724 3fbe
00000180: 7968 e03d 72df e1bd 67ff 5b3d c09d 5b3e
00000190: 9bbb 303e 5901 67bc 8fe5 8e3c 6d59 55be
000001a0: c261 833d 1060 043e 1e94 533e e4e0 f73d
000001b0: 3583 573e a38c de3d 595a 003e b024 00be
000001c0: 5367 30bd 0c50 473c 0494 42bc 159e 013e
000001d0: 934f 2c3e 320e 3ebe 0a3b 82bc 7812 36bd
000001e0: b451 0dbe b80c 623c e4fc 5b3e 90d4 603e
000001f0: e211 fa3c df4f 4ebe e2a4 783d 6a25 893d
00000200: 79ea fe3d 8c31 933c 1920 50be 676e 013e
00000210: 85c9 edbd e98b e3bc c518 543e b571 cb3d
00000220: 4df7 f73d 3eb5 aa3e e8de 2cbe f39a 963c
00000230: d1db 273d cf1b 37bd 967f 17bc fc6b 453e
00000240: 5680 0e3d 46fe 3abe fbba c9bd 0956 99bd
00000250: 66ac fd3c e3cc 623e c9e8 09bd 4a2c 41be
00000260: 44fe 713e 95f0 8ebd d1be 03bd 0648 713d
00000270: a6db 743d 20f5 aebc 827e e73c effc 603d
00000280: 036e 37be e593 1a3e 4b1a 7b3d 0e8a 81bc
00000290: e926 073e 76f5 a1bd 1869 15be 2e2b 0c3e
000002a0: 8b67 e3bd f90c 14be 1bf9 1fbe ab13 62bc
000002b0: c272 853e c39b a6bd 2b37 3cbc d703 323e
000002c0: e850 7d3d 717e 88be 154d 03be d309 d6bd
000002d0: 767d 263e cba6 bf3d 82e9 053e bd98 bcbd
000002e0: dcdb cd3d cfdf 063e a932 b3bd 7431 21be
000002f0: 54c2 0bbd ee26 483b 3cf7 aebd 7a3e 6bbe
00000300: d095 41bd 26ec 2f3e 6c92 543b 3dc9 7dbd
00000310: 26c6 d1bd 1e61 bc3d c869 203c 42c4 1fbd
00000320: 920b 4abe 4bd7 543e 7685 45be 32f2 17be
00000330: 1adc 563e c3aa cc3d 2ede 02bd 3d0e 43be
00000340: cb46 473e 8c82 54be 5e84 7ebd 74b9 cdbd
00000350: 039f 1ebe baab bc3d 9e5d 37be 4293 bcbd
00000360: 3512 ea3d a331 203e 0ebe e8bb 4e26 2a3e
00000370: 6eff 93bc 3cc1 57be f4b5 15be 46e7 d3bd
00000380: 30e0 8a3c c3eb 2d3e f8fa 9ebd 7ab3 a6bd
00000390: e204 d13d e14d 3dbd 7a6d d13d 3821 803b
000003a0: fc3f bcbd 12ef babd 8b16 3f3e 4787 24bd
000003b0: 93ab 39bd f497 633d d1b7 3c3d c056 99bd
000003c0: afe3 02bc 317b a5bd ee07 873d ebd8 a9bd
000003d0: 2eec c53d f765 213e 14b9 183d 689b 90bc
000003e0: cbec 33bd 5616 76bd 098c 0d3e 2fab 8d3d
000003f0: 5b32 323e fc21 583e 01ad eabd 65d1 803d

fc1.bias f4 [400]
0.015624724 0.06996983 -0.048876096 0.12813963 0.16835026 -0.13142703 0.12885948 0.039533757
-0.092648685 -0.065643705 0.012786135 -0.23632672 -0.14019936 0.018216543 0.084613584 0.16599533
-0.10885922 -0.13425444 -0.05652046 0.059698377 -0.065106615 0.0079815835 -0.138577 0.19362012
-0.09614442 -0.062557854 0.121440746 0.08698719 -0.023425605 0.095077835 0.02442222 -0.06807965
0.07195944 -0.13490185 -0.13611616 -0.07737694 -0.19521834 -0.0683115 0.13594235 0.039005574
-0.19980453 -0.1559204 0.10850733 -0.043071788 -0.09897038 -0.17003785 0.0033562395 0.12109201
-0.00044484535 0.12495513 0.047125027 -0.20918866 0.047786664 -0.17144443 0.19764611 0.048525285
0.0850182 -0.073685765 0.0099374475 0.0317536 0.1517777 0.07684242 -0.13978657 -0.06585805
0.16307063 0.03460059 -0.13969381 -0.09087734 0.20793599 -0.13634701 -0.03536065 0.040804975
0.09995381 0.08133047 -5.134622e-05 0.018919896 -0.08128485 -0.1185425 0.082676716 0.08977918
-0.1369412 0.062386166 0.0022195918 0.11442234 -0.15842357 0.12882209 -0.18956119 0.029023392
-0.18481006 0.039802384 0.090326086 0.06438635 0.06546338 0.119810365 0.1086585 0.15488632
0.05269552 -0.10044032 -0.09134699 -0.13181558 0.105842456 -0.037349485 -0.03814578 0.053772304
0.050585214 0.16106592 0.111407906 -0.13889062 0.08777767 -0.0031442554 -0.08340935 -0.07058893
0.07991828 -0.06988924 -0.16904822 -0.1047309 0.044153534 0.019072622 0.1297348 -0.037635073
-0.0033512744 0.05453046 -0.0873097 -0.0030911202 -0.12330036 0.08408078 0.07064904 0.12453067
0.015944904 -0.027854122 -0.1047066 -0.11445002 0.17263672 0.0813123 0.092879616 0.021257557
0.24768174 0.01728009 0.038908422 0.05108951 -0.026553266 0.031246502 -0.09599964 0.07475851
0.026399324 -0.14395784 -0.1413282 0.079816766 0.005380828 0.1911479 0.045883633 0.00037860873
0.112495236 -0.12851329 -0.08202166 -0.0076821027 0.086276904 -0.013886589 0.047051188 -0.060519256
0.083949424 0.1410537 0.019483112 0.0048557655 0.069595195 -0.19090216 -0.09748565 -0.098068364
-0.0037345004 -0.1322796 -0.0062741064 0.08318518 0.1335665 0.037264474 0.059277453 0.043712348
-0.09129322 -0.06746694 0.12037549 -0.036530532 -0.06241683 0.08843673 0.038196284 0.10635967
0.10444393 0.1146164 0.16508345 -0.14748622 0.25067383 -0.006471693 0.10890132 -0.09147152
0.043428015 0.11753261 0.10049171 -0.068939745 0.10783097 -0.1370097 0.13923769 0.08338641
-0.15504667 -0.033129215 -0.08208778 -0.16472648 0.105132304 0.07136407 -0.063988656 -0.019274147
0.08941647 0.006697753 -0.063245624 0.10136838 0.095421195 0.102585934 -0.031432327 0.019235589
-0.039334625 -0.07502389 -0.052202746 -0.1638775 -0.092899345 -0.081652336 -0.117712446 -0.03758919
0.13935784 0.14733519 0.03274907 0.06801239 -0.010956115 -0.08708929 0.06712653 -0.18612288
0.0651147 0.11455828 -0.20458934 0.04035656 -0.03743114 -0.016794901 0.13991791 0.058944497
0.06962843 -0.09449372 0.09236924 0.015717836 0.040325683 0.12370554 0.013893604 -0.059574477
0.12748544 0.065907754 -0.08375219 0.0016535223 0.14337261 0.1324362 -0.16603176 -0.019350722
00000000: d8fe 7f3c 584c 8f3d 4d32 48bd 0937 033e
00000010: 0364 2c3e cf94 06be bdf3 033e 26ee 213d
00000020: 98be bdbd 3570 86bd f07c 513c a2ff 71be
00000030: 6c90 0fbe dc3a 953c e349 ad3d aefa 293e
00000040: 95f1 debd ff79 09be ff81 67bd 4986 743d
00000050: 9e56 85bd 30c5 023c 21e7 0dbe 5a44 463e
00000060: 5ee7 c4bd 551e 80bd edb5 f83d 5726 b23d
00000070: 0ee7 bfbc 2bb8 c23d 1c11 c83c 586d 8bbd
00000080: 795f 933d b623 0abe 0962 0bbe cd77 9ebd
00000090: 51e7 47be e6e6 8bbd 7934 0b3e 4fc4 1f3d
000000a0: 8f99 4cbe 99a9 1fbe 1739 de3d 0b6c 30bd
000000b0: fcb0 cabd 671e 2ebe 5bf4 5b3b 16ff f73d
000000c0: 223a e9b9 7ae8 ff3d 2c06 413d 8d35 56be
000000d0: f3bb 433d 218f 2fbe be63 4a3e 73c2 463d
000000e0: 061e ae3d 90e8 96bd add0 223c 1010 023d
000000f0: 9d6b 1b3e 8f5f 9d3d 3624 0fbe 96e0 86bd
00000100: fdfb 263e 59b9 0d3d e50b 0fbe e61d babd
00000110: 2ced 543e 8d9e 0bbe 54d6 10bd 1e23 273d
00000120: 95b4 cc3d 9790 a63d 955c 57b8 e6fd 9a3c
00000130: ac78 a6bd 69c6 f2bd 6952 a93d 26de b73d
00000140: 503a 0cbe a388 7f3d 9276 113b 4356 ea3d
00000150: ca39 22be f0e9 033e 541c 42be 77c2 ed3c
00000160: d93e 3dbe d307 233d e2fc b83d fedc 833d
00000170: aa11 863d 235f f53d 5988 de3d 859a 1e3e
00000180: 42d7 573d a8b3 cdbd 2114 bbbd aafa 06be
00000190: eec3 d83d c6fb 18bd c03e 1cbd 5940 5c3d
000001a0: 7132 4f3d 77ee 243e d429 e43d 5839 0ebe
000001b0: c7c4 b33d da0f 4ebb 85d2 aabd ee90 90bd
000001c0: 32ac a33d 1722 8fbd fa1a 2dbe 277d d6bd
000001d0: 56da 343d 303e 9c3c 33d9 043e 3c27 1abd
000001e0: 0ea1 5bbb 555b 5f3d 6ecf b2bd 6494 4abb
000001f0: e684 fcbd 8b32 ac3d 72b0 903d f009 ff3d
00000200: e39e 823c 542e e4bc 6a70 d6bd c664 eabd
00000210: aec7 303e 1087 a63d ab37 be3d 5424 ae3c
00000220: 48a0 7d3e fa8e 8d3c 705e 1f3d 3c43 513d
00000230: 3c86 d9bc aaf8 ff3c 769b c4bd fd1a 993d
00000240: 6543 d83c af69 13be 57b8 10be f976 a33d
00000250: a851 b03b 46bc 433e 7af0 3b3d 0180 c639
00000260: e763 e63d fd98 03be f9fa a7bd 26ba fbbb
00000270: f2b1 b03d 9384 63bc bfb8 403d 0ae3 77bd
00000280: aded ab3d 6270 103e 0c9b 9f3c 1d1d 9f3b
00000290: ed87 8e3d db7b 43be 8ea6 c7bd 11d8 c8bd
000002a0: 85be 74bb 4e74 07be 0597 cdbb fe5c aa3d
000002b0: a8c5 083e a2a2 183d eacc 723d b80b 333d
000002c0: f1f7 babd 1b2c 8abd 6d87 f63d 0aa1 15bd
000002d0: caa8 7fbd 511e b53d b573 1c3d 19d3 d93d
000002e0: b3e6 d53d 01bc ea3d a30b 293e a106 17be
000002f0: 5258 803e 7f10 d4bb a807 df3d 6c55 bbbd
00000300: 93e1 313d f0b4 f03d 99ce cd3d 4830 8dbd
00000310: 7cd6 dc3d 454c 0cbe 5394 0e3e 7ec6 aa3d
00000320: 8ec4 1ebe 80b2 07bd a31d a8bd 0fae 28be
00000330: 9b4f d73d 5327 923d 7c0c 83bd d1e4 9dbc
00000340: fb1f b73d d378 db3b ec86 81bd 3a9a cf3d
00000350: 306c c33d 9318 d23d 2fbf 00bd f493 9d3c
00000360: 581d 21bd 20a6 99bd 8cd2 55bd 81cf 27be
00000370: 0342 bebd 5739 a7bd 3913 f1bd 1ff7 19bd
00000380: d2b3 0e3e 09df 163e e423 063d 144a 8b3d
00000390: 4781 33bc df5b b2bd a279 893d ff96 3ebe
000003a0: db5a 853d 889d ea3d de7f 51be ec4c 253d
000003b0: 6551 19bd 7695 89bc a446 0f3e c96f 713d
000003c0: 5a99 8e3d ec85 c1bd 162c bd3d b1c2 803c
000003d0: 8b2c 253d 5559 fd3d 00a2 633c 5e04 74bd
000003e0: 8b8b 023e a5fa 863d 4586 abbd 00bb d83a
000003f0: 45d0 123e 5b9d 073e 3b04 2abe 6885 9ebc
